PredatorAndPreyAI/nets.1.pt (torch_old, 66338 bytes, 4 tensors)

weight f4 [256, 50]
00000000: be8d d73d 7e13 b93d 407c eb3b 1636 cabd
00000010: 18dd a9bc 58cd b7bd 5461 dd3d e86e 9b3c
00000020: 2006 edbd c8fd cbbd f6d3 a53d 6075 763d
00000030: 6b92 0d3e 1063 ce3d da13 8c3d da91 96bd
00000040: dd30 023e c068 953d e49b c63d eed2 f7bd
00000050: 8db3 dabd 9e1c ffbd d84e cb3d 2f93 0b3e
00000060: fc77 33bd 7cfa 20bd 40ce 6fbb 27a7 0bbe
00000070: 6ab0 e03d c082 5d3b d05a 93bd 829d f93d
00000080: d0b8 a43c 8001 d8bb b069 4a3d c70a 0b3e
00000090: a403 ffbc 4217 bd3d e259 0ebd 6be4 033e
000000a0: 00d9 9c3b 0476 35bd 1e74 df3d 7644 62bd
000000b0: 6043 fdbb ecc6 ca3d 8eaa 4fbd 108a 6b3c
000000c0: dced bd3d 60e1 733d 78de 08be 00b2 b23c
000000d0: 443c 1d3d 481f 6a3d 30b9 133c 200b cfbd
000000e0: 4a54 963d 0107 92bd 5cc9 acbd a87f 75bd
000000f0: ac50 173d 4c7c 613d 8f59 93bd 5ac4 b0bd
00000100: 62f0 28bd 7de8 0c3e a44e 4e3d 40c0 00bc
00000110: fb90 083e 2ccb 593d dc02 3b3d 04c8 ebbd
00000120: 2fcc bbbd 2e7e f4bd bcf8 1a3d 0075 673d
00000130: 88f5 cd3d 644d 9cbd 5869 f93c 0045 a3bb
00000140: 609d 4a3c 3090 203c 1cc4 43bd f4ab 5b3d
00000150: 7816 283d a47c 933d 4d71 083e 7c4e 243d
00000160: aab7 6fbd b415 9e3d 19c4 0cbe b521 c8bd
00000170: 621b 833d b0c9 c93d e010 b0bb dce7 353d
00000180: 7432 503d c6ab cd3d cb00 0bbe c341 05be
00000190: 0070 50ba 78c2 6f3d e63d 5bbd 3e7c 6cbd
000001a0: b994 83bd aa72 3abd 30da 6f3d 63f7 febd
000001b0: 836f ccbd 46a5 24bd 0a3e 3fbd 7567 0d3e
000001c0: c0f6 993d c444 dabd fcb6 7a3d 00ba b93b
000001d0: c81e 4f3d dabd c83d 3f02 0dbe 1410 aebd
000001e0: 42f0 67bd e41a a8bd dea3 c23d 2ef3 e43d
000001f0: 88f2 ea3c b85c 543d de82 ea3d c701 b7bd
00000200: a0c4 f13b 9d30 093e 620e 29bd 5626 f5bd
00000210: 1291 84bd 0cf1 95bc 9430 8c3d 90b2 c0bc
00000220: 7879 183d 104b 7b3d 0410 8cbd c563 f1bd
00000230: 58bf d53c c5d7 eabd d469 d5bc 78f3 6b3d
00000240: 7c5a 643d 1275 5bbd 4018 eabc ba21 da3d
00000250: e8a4 d5bc 10c3 f53c 001b a6bb 20e7 da3d
00000260: e872 c0bd 20ee 26bd 101d 133c 2475 fabd
00000270: 8073 f43a e0f9 b9bb 58bd 82bc fee9 d23d
00000280: 2888 c13d ec37 b7bc a25d a23d d4cc 513d
00000290: 5814 743d b02f a43d 30b4 bcbc 4eb5 8abd
000002a0: 04b6 a8bd 30bd 1a3d 0459 9b3d 2812 c0bd
000002b0: f044 0fbd b3ab 92bd ee91 e73d 4540 b4bd
000002c0: 400d 843b 8732 043e dc31 68bd 60be ac3c
000002d0: 5c79 973d 224a 66bd e620 cebd e4ea 91bc
000002e0: 707e cb3c 3478 db3d ae3e af3d 50f8 35bc
000002f0: 7065 07bc 9124 0d3e b2e3 03be 3075 65bd
00000300: d011 203d c2f1 d3bd 301e 3bbc 805a 9e3a
00000310: f365 abbd 0042 573d 8d99 053e c359 f4bd
00000320: 1f50 8fbd 3214 a83d 18a7 dc3c 00dc a6ba
00000330: d386 01be 205d d4bc 4448 323d f05e 70bc
00000340: 6874 c0bc 4eae d5bd 483a c6bd 88e8 043d
00000350: 200f cebd 5170 8dbd 1651 c53d 00de 02ba
00000360: 3e36 03be 226f d23d 3460 68bd 43f4 99bd
00000370: 982c 7abd d240 06be 103f f6bc 5ed8 cbbd
00000380: 8ae8 26bd ecf2 463d 6e29 f7bd 9849 523d
00000390: d070 eabd 002f 923d 68f5 adbc 986d e53c
000003a0: a264 c33d 2e51 cb3d d05f 003d 80ac 323c
000003b0: 0c0b 93bc 9831 ae3d aeec 03bd c2a4 65bd
000003c0: aad3 963d 80fc a33b 9f12 05be d88e d83c
000003d0: 6e53 b5bd 2f14 bebd 531f a2bd 4296 b03d
000003e0: 82f4 8b3d 6c67 7abd 5862 44bd 729e e4bd
000003f0: 407e 8c3c 50c4 70bd 483c e4bd 2018 a43b
0.10525082 0.09036921 0.0071864426 -0.09873597 -0.020735309 -0.08974713 0.108095795 0.018973783
-0.11573434 -0.09960514 0.08097069 0.06017053 0.13825385 0.100774884 0.06839724 -0.07352038
0.12713952 0.0729537 0.096977025 -0.121007785 -0.10678778 -0.1245663 0.099271476 0.13630365
-0.043815598 -0.03930138 -0.003659144 -0.13637982 0.10971148 0.0033799857 -0.071950555 0.12188245
0.020107657 -0.0065919757 0.049417198 0.1357833 -0.031129666 0.09232952 -0.034753688 0.12880103
0.0047866106 -0.044302 0.109108195 -0.05524107 -0.007728979 0.099012226 -0.050699763 0.014376178
0.09273884 0.059541106 -0.13366115 0.021813393 0.038387552 0.05715874 0.00901632 -0.10109544
0.073402956 -0.07130242 -0.08436844 -0.059936196 0.03694217 0.05505018 -0.07194816 -0.08631201
-0.041244872 0.13760562 0.050367966 -0.007858336 0.13336556 0.053172275 0.045657024 -0.11512759
-0.09169804 -0.11938129 0.037834868 0.056508064 0.10056597 -0.076319486 0.03044574 -0.0049825907
0.012366623 0.009800002 -0.047794446 0.053630784 0.041037053 0.07201508 0.13324471 0.04011391
-0.058524765 0.07718983 -0.1374668 -0.09772054 0.06401707 0.09852922 -0.0053731054 0.04441057
0.050829366 0.10042529 -0.13574521 -0.13013367 -0.00079512596 0.05853507 -0.053525828 -0.057735674
-0.06424851 -0.04551951 0.05855769 -0.12449529 -0.09982207 -0.04019668 -0.046690024 0.13808997
0.07517767 -0.10657647 0.061209664 0.005667925 0.050566465 0.09801836 -0.13770388 -0.084991604
-0.056625612 -0.08208254 0.095039114 0.11179195 0.028680101 0.051846236 0.11450742 -0.08935886
0.007378176 0.13397451 -0.041273482 -0.119702026 -0.064729825 -0.018303417 0.06845203 -0.023522645
0.037225217 0.061350882 -0.06838992 -0.11786608 0.026092216 -0.11466936 -0.02605144 0.057605237
0.055750355 -0.053578444 -0.028576016 0.10650964 -0.02607961 0.03000024 -0.0050691366 0.10688615
-0.09396917 -0.040754437 0.008979097 -0.12229374 0.0018650144 -0.0056755394 -0.015959427 0.10298537
0.09449798 -0.022365533 0.07928015 0.05122073 0.059589714 0.08016908 -0.023035139 -0.067728624
-0.08237842 0.03777808 0.07585338 -0.09378463 -0.034977853 -0.07161655 0.11307131 -0.08801321
0.0040299 0.129099 -0.056688175 0.021086872 0.07396194 -0.056223042 -0.10064869 -0.0178122
0.024840564 0.10716286 0.08556877 -0.011106566 -0.008263931 0.1378348 -0.12879828 -0.05601996
0.039079487 -0.10348846 -0.0114207715 0.0012081414 -0.08369055 0.052553177 0.13046856 -0.11931183
-0.06997704 0.08206977 0.026935145 -0.001273036 -0.12649088 -0.025923312 0.04352595 -0.014671072
-0.023493007 -0.104336366 -0.09679085 0.03244832 -0.100614786 -0.06906188 0.096346065 -0.0004992187
-0.1281366 0.10275103 -0.05673237 -0.07517292 -0.061077684 -0.13110664 -0.030059367 -0.09953378
-0.04074911 0.048571512 -0.12068449 0.051339716 -0.114472985 0.07137871 -0.021235183 0.02800636
0.095406786 0.09927593 0.031341374 0.010905385 -0.017949603 0.08505553 -0.032208137 -0.05606533
0.073645905 0.0050044656 -0.12995385 0.0264353 -0.088538036 -0.092811935 -0.07916131 0.086224094
0.068337455 -0.061133787 -0.04794535 -0.111630335 0.017150044 -0.05878097 -0.1114431 0.0050077587

bias f4 [256]
00000000: 004e b1bb 307c 063c 2cf4 0ebd f691 febd
00000010: a60d b43d 749e e6bd f0ef b63c fc08 eabd
00000020: 5409 ffbd 92da f13d d8eb cabc e899 8a3c
00000030: 0084 1b3b c0fb debb 6065 58bc 0ef1 ba3d
00000040: 0134 a6bd 20c8 e7bb beed c73d 905d 15bd
00000050: 810e a3bd 9449 26bd cb8e 01be 90c4 1c3c
00000060: 000a 9c3b dd6f afbd 91d1 9bbd f017 123c
00000070: 6293 ea3d cccc 4bbd c4d5 033d e054 f6bc
00000080: ea96 e83d d2c5 a73d 3844 f9bd b4ec 9b3d
00000090: 54c4 4dbd 1c61 093d f275 e13d 18b5 f23c
000000a0: 5f4f 0dbe 0a75 b0bd 800a 08bc 0c62 313d
000000b0: 80e2 9d3d 1753 083e 40ef cb3b 8634 d73d
000000c0: d851 e83c d04c 4e3d 5082 473c a0f1 d43d
000000d0: 8096 b43c 5e8d a7bd 090b 053e 3616 c23d
000000e0: 1ec6 e13d d27f da3d 5044 8d3c f435 82bd
000000f0: b6f4 eb3d c238 a6bd e6d3 c53d e0af 7d3d
00000100: 90dc 6dbc bc14 bcbc 7488 b6bd 8027 383b
00000110: 4083 2f3c d060 843d eb12 c9bd b6a8 873d
00000120: 5c32 0d3d 4e3e 20bd b0aa 72bc bc44 89bc
00000130: a8ca f73c 34e4 6d3d 381e a83d f3be 003e
00000140: 4245 b1bd e03d f7bd 10b5 01bd d652 3dbd
00000150: 8a2b d2bd 72f9 f1bd a213 b3bd aaf2 bdbd
00000160: 8315 c5bd a05e 943d 62d8 813d de41 75bd
00000170: f0ae 183d 44db 5e3d 79d5 0b3e daf3 26bd
00000180: 10d6 b73d 9b8f 093e ca24 b5bd 907b 403d
00000190: eda1 04be 20dc 7a3d f231 afbd 8214 75bd
000001a0: bcf8 93bc 223f cfbd 2da4 a0bd 467d c03d
000001b0: dc45 d53d 6465 133d 44c4 d9bc 22a0 5bbd
000001c0: da72 e13d 65f9 9abd d658 24bd 3052 70bc
000001d0: 56b9 e53d 7ad2 ea3d d021 4fbd 31b5 02be
000001e0: 0adf 0dbe a9b1 81bd 50d9 03be 3ab8 c23d
000001f0: 1c24 573d c0f1 3a3d f2ee d63d ea6e d3bd
00000200: ecc2 6f3d ba0c 5ebd 4e6a a2bd ded4 fd3d
00000210: 4567 fdbd be0e f83d 3a63 ccbd f660 8dbd
00000220: 80d9 40bc 6e23 9c3d c88a 3b3d 46b7 7cbd
00000230: 0ebe 01be 99ea 0fbe 889f b8bd dbb4 0c3e
00000240: 2119 0f3e f0f0 b9bd b99e 08be ba6a 963d
00000250: 1e62 e83d b400 043d 6d52 06be 305c d83d
00000260: 3803 cb3d 409e e3bd a58b 8dbd 4010 9f3b
00000270: 5427 523d 34ad 293d 06f6 8c3d 5271 d03d
00000280: 1a6d e53d 9555 92bd 8015 9b3c 40f4 64bc
00000290: 8077 a7bd 24b2 febc 1815 5c3d 058b 093e
000002a0: e682 f03d f05d 773d 81d5 eabd 0a1b 2fbd
000002b0: 2494 883d 28a1 d1bd 770d 043e 2614 afbd
000002c0: 4447 003d 203b b0bb 76a6 f43d 6a29 2bbd
000002d0: 40df 4c3d f05a 33bd f880 703d 320b 9c3d
000002e0: 9b22 edbd c683 00be 1e97 e53d e26e bc3d
000002f0: cc3a 723d e664 08bd 4e2b 0ebe e0bf b33c
00000300: 966b f93d 7c9e e1bd bcc0 3dbd 0f5d cabd
00000310: 61c3 0d3e 70e3 283d 2c55 d8bc 8a8d a23d
00000320: 42f5 9b3d e807 66bd de68 8c3d d831 6f3d
00000330: 7c06 623d dcc7 a63d 50cc c83d 20de 333d
00000340: e817 bb3c e36c 0d3e 68b3 08bd c5ae 013e
00000350: 36e5 56bd 583c af3c c4b9 743d 4435 a73d
00000360: 984e af3c 166b 1ebd 0009 193b a52d 0c3e
00000370: 7e8f ac3d e490 603d 8684 9e3d 4c8f 643d
00000380: 1a84 a6bd 1619 a43d 80c3 ee3b 0ad2 af3d
00000390: 9094 6c3d 488e 57bd 007e 193c b417 b3bd
000003a0: a8a0 91bc b448 193d 8059 dc3d 59f7 06be
000003b0: 7c94 823d a5a2 0c3e 7ab4 fb3d 9b71 a2bd
000003c0: aa59 c03d 609e 083c 40c3 00be e8b2 bcbd
000003d0: 6c25 c8bd 5ce5 133d 3af6 1abd e4c7 ce3d
000003e0: 2afd 03be c8e1 70bd c4f6 643d d091 a33c
000003f0: f4ae 74bd a0eb 4fbd d6eb a23d 2297 07be
-0.0054109097 0.00820832 -0.03490083 -0.124301836 0.08791666 -0.11260691 0.022331208 -0.11427495
-0.12452951 0.11809267 -0.024770662 0.016919091 0.0023729801 -0.0068049133 -0.013207763 0.09128009
-0.08115388 -0.0070734173 0.097621426 -0.03646618 -0.07961751 -0.040597513 -0.12652127 0.0095683485
0.0047619343 -0.08566258 -0.07608331 0.00891684 0.11453892 -0.049755856 0.032186285 -0.030069768
0.113569096 0.08192028 -0.12171215 0.07613507 -0.05023606 0.033539876 0.110088244 0.029627368
-0.13799809 -0.086160734 -0.008303285 0.043306395 0.07709217 0.13312946 0.006223589 0.10508065
0.028359339 0.050366223 0.012177065 0.10397649 0.02204442 -0.081812605 0.12992491 0.09476893
0.11024116 0.10668911 0.017244488 -0.06357947 0.11521284 -0.081162944 0.09659557 0.061935306
-0.014517918 -0.022959106 -0.08912745 0.0028099716 0.010712445 0.06463778 -0.098180614 0.06623976
0.034471855 -0.03912192 -0.014811203 -0.016756408 0.030248001 0.05807896 0.08208889 0.12572841
-0.08655788 -0.120723486 -0.031666815 -0.046221577 -0.10262211 -0.11815156 -0.08743979 -0.092748
-0.09623244 0.07244611 0.063401 -0.05987727 0.03727621 0.054408327 0.13655652 -0.0407599
0.08976376 0.13433687 -0.088449076 0.04699284 -0.12952395 0.061245084 -0.08554448 -0.05983401
-0.018062942 -0.101194635 -0.07843814 0.09398894 0.10413715 0.035985366 -0.026582845 -0.05361951
0.11008234 -0.075670995 -0.040123783 -0.0146680325 0.11216991 0.114659265 -0.050569355 -0.12764432
-0.13854614 -0.06332714 -0.12875867 0.09507795 0.05252467 0.045640707 0.10494794 -0.103238896
0.0585355 -0.054211356 -0.07930432 0.12394117 -0.12373213 0.12112187 -0.099798635 -0.069032595
-0.011770606 0.07623945 0.04578665 -0.06169822 -0.12670156 -0.14054336 -0.09014803 0.13740866
0.1397443 -0.09079158 -0.13341798 0.07344575 0.11346839 0.032227233 -0.1311738 0.10564458
0.09912723 -0.11114168 -0.06911401 0.004854232 0.051307037 0.041424945 0.06882863 0.10177864
0.1120245 -0.0714523 0.01893115 -0.013974249 -0.0817709 -0.031090803 0.053731054 0.13431938
0.11743717 0.06039232 -0.11466504 -0.042750396 0.066688806 -0.10235816 0.12895761 -0.08548765
0.031317964 -0.005378142 0.119458124 -0.041787542 0.050017595 -0.043787897 0.058716744 0.07619323
-0.11578866 -0.12550268 0.11210464 0.09200837 0.059138104 -0.03329935 -0.13883707 0.021942079
0.121787235 -0.110165566 -0.046326384 -0.09881031 0.13844062 0.041232526 -0.0264078 0.07937153
0.076151386 -0.056159884 0.06855939 0.058397144 0.055181965 0.08143589 0.098045945 0.043913007
0.022838548 0.13811068 -0.03337422 0.12664326 -0.052464686 0.021391079 0.059747472 0.081644565
0.021399781 -0.038676344 0.0023351312 0.13689287 0.084258065 0.05482568 0.077401206 0.05580072
-0.08130665 0.08012597 0.007286489 0.08584984 0.057758868 -0.052625924 0.00936842 -0.087447554
-0.017776802 0.03742285 0.10759258 -0.13180293 0.063759774 0.13733919 0.122902825 -0.07931825
0.09392102 0.008338541 -0.12574482 -0.09213811 -0.09772763 0.036107406 -0.037832476 0.1009672
-0.12889543 -0.05880907 0.055899397 0.01996699 -0.05973716 -0.05076182 0.079551384 -0.13241246

weight f4 [5, 256]
00000000: 2e26 2cbd 00b5 de3a 92bd 15bd 00b9 f13c
00000010: a889 453d 9826 183c 42e0 10bd 80e4 143b
00000020: d069 373d 7edb 74bd 549d a8bc 1082 9d3b
00000030: 0c64 f1bc 00b7 7e3a 3c81 fcbc a481 f63c
00000040: 5219 6e3d 78cc 273d 085e 153d 34ef b0bc
00000050: 604d 1fbb c0b5 d33b 38e4 883c c0fb 8cbc
00000060: 38fa 05bd 9ed3 69bd e2d2 3b3d a420 743d
00000070: d807 153d 7ca1 38bd 1884 0cbd 8664 5d3d
00000080: e098 2e3c b88b 86bc 402f 28bc c638 49bd
00000090: c6e0 293d eabd 483d 526c 51bd 0ac1 42bd
000000a0: 0015 9c3c fc83 71bd c037 d9bc 264a 6fbd
000000b0: d026 5c3c 386c 4c3d 4089 35bd 360c 68bd
000000c0: a883 6dbc 10a3 ff3c b8ed 9a3c a805 99bc
000000d0: 241d cf3c 60b4 393b a07f b83b 46b1 01bd
000000e0: 804d d23b c08d 08bd 201b b8bc f4b1 153d
000000f0: 40bf 513c c86f f8bc 5834 813c a028 56bb
00000100: fc99 d63c 84f3 17bd 8e3a 563d 3817 c7bc
00000110: 10ec f43c 6894 66bd e2f6 313d 28d1 583c
00000120: fe46 283d 0e25 1a3d 4a09 623d 24b7 523d
00000130: d058 91bc 30ae dbbb b60c 6f3d 6014 62bd
00000140: c4ad 7cbd 2c84 563d 3076 72bd cad9 7d3d
00000150: e8f0 4bbd 205b 1fbd eefe 0bbd 9ca4 0b3d
00000160: c8fd 183c 40e1 32bc 3869 e5bc 0819 e8bc
00000170: 8e89 443d a250 5e3d 244d 233d c059 153c
00000180: 5c0b efbc b484 f83c 8e1d 70bd 68ee 0abd
00000190: 583b 4dbc 4808 df3c 5aa5 463d d486 30bd
000001a0: 8819 313d 088c 34bc 3815 17bc 40ad bb3a
000001b0: d008 2c3c 4853 1ebd 142e 45bd e4ed b13c
000001c0: 94b0 f6bc c05f 883c 001b 9c3b 5a82 573d
000001d0: f0ba 73bd 3021 fe3b f042 b2bc 76a4 3a3d
000001e0: e8e2 d1bc 7627 433d 764e 263d 60a9 653b
000001f0: 9c3d d4bc ac08 3c3d 8afd 79bd c08b 8d3a
00000200: 2860 0b3c f295 283d 0684 07bd 08db 333d
00000210: e4cb d1bc c6ed 073d 98a6 cd3c 14d9 e93c
00000220: 40d9 783d 20ce 793d e02c b8bc 5e92 72bd
00000230: 1cb1 e83c a4fb 0a3d e0e6 cf3c a0c0 9f3c
00000240: 7e19 103d 60b7 c7bc acbe 5e3d fc09 0f3d
00000250: dc83 7b3d 285e 0fbd 8422 aa3c 583d 7cbc
00000260: b4ed 2f3d cc1f bc3c 34c4 ccbc e82a 50bd
00000270: 504b 6fbc 10ab acbc fc74 3fbd c6cc 7e3d
00000280: 02b1 103d 2097 cb3c 9646 603d a05c ae3b
00000290: ba9e 183d 7e63 6d3d 9076 0bbc c4a5 863c
000002a0: a03e 523d d010 483c 82f7 103d 1ec8 29bd
000002b0: 582b 1f3c e81f 633c e0d1 593d fcea 0d3d
000002c0: 80ac 2e3d c6d7 38bd d476 69bd 54e2 3c3d
000002d0: 001f 6c3d c08c c7bb c433 973c 5eff 233d
000002e0: 70ce 87bc 50a3 21bc c261 4abd 30c9 dcbb
000002f0: b23b 62bd 9a96 483d de87 0c3d d891 1fbd
00000300: 82e4 40bd f877 c7bc 70f8 ff3c 5210 58bd
00000310: 4a31 243d 6ce9 d1bc ca41 4bbd 205f 54bc
00000320: e8fe 7dbc 00a7 5d3d 1ac0 27bd 94ed 343d
00000330: 1c03 313d 0015 58bd bc1d 6dbd 0cd8 01bd
00000340: a0d2 2e3d 7861 eabc b80e 31bd 7020 5fbc
00000350: 8497 d7bc 46d2 383d 328e 063d 3071 4b3c
00000360: 8055 213a 2851 50bc 0459 15bd 94db 59bd
00000370: 58b1 163c 30db 393d 4c76 db3c d2e9 33bd
00000380: fa51 1cbd 7284 76bd 3a5c 793d 1c87 c9bc
00000390: 009c 76bc 804b e5ba 78ee 353c 2cd8 72bd
000003a0: b899 41bc 1eaa 583d 1e66 03bd 8067 2cbc
000003b0: 3800 1b3d a424 f7bc 48d3 cdbc 9cd9 88bc
000003c0: b034 1abc 244a d73c ce03 05bd 9ac9 1f3d
000003d0: 00fd cbbc 2a0e 18bd ca8d 633d f40a 49bd
000003e0: 50c7 0c3c 5689 0bbd 80ef 75bb f666 35bd
000003f0: 7c38 2ebd a849 c53c 0091 57bc 70c6 e83b
-0.0420286 0.0016991198 -0.03655774 0.02950716 0.048226982 0.009286545 -0.03537012 0.0022719204
0.044778645 -0.059779637 -0.020582832 0.0048067644 -0.029466651 0.00097166 -0.030823343 0.030091114
0.058129616 0.04096648 0.03646663 -0.021598436 -0.0024307594 0.0064608753 0.016710386 -0.017209888
-0.03270933 -0.05708658 0.04585541 0.05960144 0.036384434 -0.04507588 -0.034305662 0.054050945
0.010656565 -0.016424045 -0.0102651715 -0.04912641 0.041474126 0.04900924 -0.051128693 -0.047547378
0.019052982 -0.05896376 -0.026515841 -0.058420323 0.013436988 0.049907893 -0.044320345 -0.05665227
-0.014496721 0.031205684 0.018912181 -0.018679455 0.02528245 0.0028336272 0.0056304485 -0.0316632
0.00641793 -0.03333831 -0.022473872 0.036546662 0.012801945 -0.030326739 0.01577203 -0.0032678023
0.026196472 -0.03709747 0.052301936 -0.024303064 0.02989772 -0.056293875 0.043448336 0.0132334605
0.04108333 0.037632994 0.05518464 0.051444188 -0.017742544 -0.0067041144 0.05836173 -0.055195212
-0.061689153 0.052372143 -0.059194744 0.061975278 -0.049790293 -0.038905263 -0.034178667 0.03409253
0.00933785 -0.010917962 -0.028004274 -0.028332248 0.047982745 0.054276116 0.03986849 0.009115636
-0.029180221 0.030336715 -0.058621936 -0.03391877 -0.012526356 0.027225628 0.048497535 -0.043097332
0.04323724 -0.011019714 -0.009221368 0.00143186 0.010500148 -0.038653642 -0.048139647 0.02171988
-0.030113496 0.01664722 0.004763961 0.052614547 -0.05950445 0.007755421 -0.021760434 0.045567
-0.025620893 0.047645055 0.04060217 0.0035043582 -0.025908284 0.045906708 -0.06103281 0.0010799095
0.008506812 0.041158624 -0.03308489 0.043910056 -0.025609918 0.033185743 0.025103852 0.028545894
0.06075406 0.06098759 -0.022482336 -0.059221618 0.028404765 0.03393139 0.025378644 0.01950103
0.03518056 -0.024379432 0.054381058 0.03492163 0.061405048 -0.035001904 0.020768411 -0.015395485
0.0429513 0.02296438 -0.0249959 -0.05082217 -0.014605358 -0.021077663 -0.046742424 0.062207006
0.035325058 0.024852335 0.054754816 0.0053211004 0.03726075 0.05795621 -0.008512154 0.016436465
0.051329255 0.01221104 0.03539229 -0.041450612 0.009714924 0.0138625875 0.053178668 0.034647927
0.042644978 -0.045127653 -0.05699809 0.04611428 0.05764675 -0.0060897768 0.018457301 0.04003846
-0.01657793 -0.009865597 -0.049409635 -0.0067378506 -0.05523271 0.04897175 0.03430926 -0.038957447
-0.047092922 -0.024349198 0.031246394 -0.05274994 0.04008607 -0.025624 -0.04962329 -0.012962133
-0.015502669 0.05411434 -0.040954687 0.044171885 0.043215856 -0.052754402 -0.057889685 -0.03170018
0.042681336 -0.02861093 -0.043226928 -0.013618574 -0.026317365 0.045122407 0.03285045 0.012417123
0.0006154403 -0.012714662 -0.036461845 -0.05318792 0.0091975555 0.04537505 0.026789807 -0.04392416
-0.038164116 -0.060184903 0.06087897 -0.024600558 -0.015051842 -0.0017493814 0.011104219 -0.05928819
-0.011816435 0.05289661 -0.03207981 -0.010522723 0.037842005 -0.030168839 -0.02512516 -0.016705327
-0.009411976 0.02628047 -0.03247433 0.03901062 -0.024900913 -0.037122883 0.055555142 -0.04908271
0.008592442 -0.03406652 -0.0037526786 -0.044287644 -0.042534336 0.024082974 -0.013157129 0.0071037337

bias f4 [5]
00000000: 589a e2bc 70da 913c 3657 44bd 68cd 2b3d
00000010: 1027 e53c
-0.027661487 0.017804354 -0.047934733 0.041943938 0.027972728
